landscape/simple_nn.pth (torch, 1899 bytes, 3 tensors)

fc1.weight f4 [16, 2]
00000000: 06f7 183f d127 0b3f 3048 08bf 02c5 13bd
00000010: 3362 8dbd d644 51bf 66ed 1bbf 471c 81be
00000020: e7dd fcbc 0bab 2fbf 278b 84be d181 d23e
00000030: b6e3 443d 51a0 623f 0d9f 483f 9a3c 313e
00000040: b663 cd3d 0684 86bd 0be4 65be 790f b9bd
00000050: 0d2a a2be 09dc 9b3d 967f 5dbf 3e36 96bd
00000060: 39c0 19bf 52dc e43e 08e7 fcbe 511d 27bf
00000070: d8f1 293f 7f03 983e 5899 d23e 6275 b43e
0.5975193 0.5435763 -0.5323515 -0.036076553 -0.06903496 -0.8174566 -0.60909116 -0.25216886
-0.03086753 -0.68620366 -0.25887415 0.41114667 0.048068725 0.88525873 0.7836769 0.17308274
0.10028784 -0.0656815 -0.22450273 -0.09036154 -0.31672707 0.07610328 -0.86522806 -0.073345646
-0.60058933 0.4469934 -0.49395013 -0.6527911 0.6638465 0.29690167 0.41132617 0.35245806

fc1.bias f4 [16]
00000000: 9d2d 79bf 8629 5a3f 9b6c 6b3d 1a46 1ebf
00000010: d80a 623e 2183 f73e 4253 35be 6a0e 583c
00000020: 5002 df3e 3681 213f 8c34 d63e 3461 bfbc
00000030: d237 17bf a716 813f e278 273f 1806 a43f
-0.97335225 0.8521961 0.05747662 -0.61825716 0.22074449 0.4834223 -0.17707542 0.01318703
0.43556452 0.63087785 0.41836965 -0.02336178 -0.5906955 1.0085038 0.6541883 1.281436

fc2.weight f4 [1, 16]
00000000: da51 c83e f86e 9ebe 4c9d c3be 0c29 0ebf
00000010: 1c1d 33be dbe9 3c3e 4ab4 dd3e cbfb 783e
00000020: 8395 3fbd 3aea 83be 7155 bb3c ee0c 81be
00000030: c348 283d d54a abbe 5593 fa3e 720e 923e
0.39124948 -0.30944037 -0.38205945 -0.5553138 -0.17491573 0.18448584 0.43301612 0.24314801
-0.046773445 -0.25764638 0.02286789 -0.25205177 0.041085016 -0.3345553 0.4894053 0.28526646
